assets/ai/compressed_esrgan.tflite (tflite, 33768 bytes, 18 tensors)

StatefulPartitionedCall/conv2d_177/Conv2D/ReadVariableOp i1 [64, 3, 3, 3] scale=0.0032228855 zero_point=0
00000000: 0807 f7e5 0cfa 1015 09f5 1707 ed4d 4ada
00000010: fff4 0e0a 03e8 0600 0602 0103 fcf9 f803
00000020: 1f01 f3eb f803 1a9d c522 0302 07fc f3e7
00000030: fdfa fc14 00f3 e6e0 dce8 f9f5 f1ee ecdb
00000040: e5e8 1444 51dd eaeb f1ea e0e0 edea 1315
00000050: 0bfa f703 0a0e 32fa ebf3 120c 1bbb bedc
00000060: 00f8 0af9 efec 04f1 ea0a f8f9 0e08 09ee
00000070: e8ee 1607 ffe5 e5ff 2424 5214 fbf7 0707
00000080: 08f3 f1fd 0b02 fbf2 05f5 03fa cbf5 fef8
00000090: 1d20 ee12 ea94 f2f7 e1f1 0300 1215 02f3
000000a0: ff06 f5f5 fd19 f8fc f0f4 0425 fcf7 23bb
000000b0: ab16 fb02 f3f8 f91a faf8 eef8 ff1a 1116
000000c0: 150b 2504 fc07 1501 0ab6 acc7 07fd 0ef6
000000d0: eaeb 06fd 03f1 ebf0 e7e2 eaf5 fcf7 1b1d
000000e0: 1ccb d7eb 4b5b 492b 321f f4ee f5f7 05fa
000000f0: 0c16 1707 fae3 eaf8 f804 04f8 030c 0e97
0.025783084 0.022560198 -0.02900597 -0.08701791 0.038674626 -0.019337313 0.05156617 0.0676806
0.02900597 -0.03545174 0.07412637 0.022560198 -0.061234824 0.24816218 0.23849353 -0.12246965
-0.0032228855 -0.038674626 0.045120396 0.032228857 0.009668657 -0.07734925 0.019337313 0.0
0.019337313 0.006445771 0.0032228855 0.009668657 -0.012891542 -0.022560198 -0.025783084 0.009668657
0.099909455 0.0032228855 -0.041897513 -0.0676806 -0.025783084 0.009668657 0.083795026 -0.31906566
-0.19015025 0.10957811 0.009668657 0.006445771 0.022560198 -0.012891542 -0.041897513 -0.080572136
-0.009668657 -0.019337313 -0.012891542 0.064457715 0.0 -0.041897513 -0.083795026 -0.10313234
-0.11602388 -0.07734925 -0.022560198 -0.03545174 -0.048343282 -0.05801194 -0.064457715 -0.119246766
-0.08701791 -0.07734925 0.064457715 0.21915622 0.26105374 -0.11280099 -0.07090348 -0.0676806
-0.048343282 -0.07090348 -0.10313234 -0.10313234 -0.061234824 -0.07090348 0.061234824 0.0676806
0.03545174 -0.019337313 -0.02900597 0.009668657 0.032228857 0.045120396 0.16114427 -0.019337313
-0.0676806 -0.041897513 0.05801194 0.038674626 0.08701791 -0.2223791 -0.21271044 -0.11602388
0.0 -0.025783084 0.032228857 -0.022560198 -0.054789055 -0.064457715 0.012891542 -0.048343282
-0.07090348 0.032228857 -0.025783084 -0.022560198 0.045120396 0.025783084 0.02900597 -0.05801194
-0.07734925 -0.05801194 0.07090348 0.022560198 -0.0032228855 -0.08701791 -0.08701791 -0.0032228855
0.11602388 0.11602388 0.26427662 0.064457715 -0.016114429 -0.02900597 0.022560198 0.022560198
0.025783084 -0.041897513 -0.048343282 -0.009668657 0.03545174 0.006445771 -0.016114429 -0.045120396
0.016114429 -0.03545174 0.009668657 -0.019337313 -0.17081293 -0.03545174 -0.006445771 -0.025783084
0.09346368 0.10313234 -0.05801194 0.05801194 -0.07090348 -0.34807163 -0.045120396 -0.02900597
-0.099909455 -0.048343282 0.009668657 0.0 0.05801194 0.0676806 0.006445771 -0.041897513
-0.0032228855 0.019337313 -0.03545174 -0.03545174 -0.009668657 0.080572136 -0.025783084 -0.012891542
-0.05156617 -0.038674626 0.012891542 0.119246766 -0.012891542 -0.02900597 0.11280099 -0.2223791
-0.27394527 0.07090348 -0.016114429 0.006445771 -0.041897513 -0.025783084 -0.022560198 0.083795026
-0.019337313 -0.025783084 -0.05801194 -0.025783084 -0.0032228855 0.083795026 0.054789055 0.07090348
0.0676806 0.03545174 0.119246766 0.012891542 -0.012891542 0.022560198 0.0676806 0.0032228855
0.032228857 -0.23849353 -0.2707224 -0.18370448 0.022560198 -0.009668657 0.045120396 -0.032228857
-0.07090348 -0.0676806 0.019337313 -0.009668657 0.009668657 -0.048343282 -0.0676806 -0.05156617
-0.080572136 -0.096686564 -0.07090348 -0.03545174 -0.012891542 -0.02900597 0.08701791 0.09346368
0.09024079 -0.17081293 -0.13213831 -0.0676806 0.24171641 0.2932826 0.23527065 0.13858408
0.16114427 0.099909455 -0.038674626 -0.05801194 -0.03545174 -0.02900597 0.016114429 -0.019337313
0.038674626 0.07090348 0.07412637 0.022560198 -0.019337313 -0.09346368 -0.07090348 -0.025783084
-0.025783084 0.012891542 0.012891542 -0.025783084 0.009668657 0.038674626 0.045120396 -0.338403

StatefulPartitionedCall/conv2d_177/Conv2D_bias f4 [64]
00000000: b19f 3fbf 08ec 493f 29f5 5ebf 1f3f 653f
00000010: 851f 57bf a55e 003f fe46 433f 2aaa 6e3f
00000020: 22c2 44bf cff6 463f 1b8d 113f ca22 353f
00000030: 0782 6ebf 2e49 04bf f9b6 e2be 3ea7 503f
00000040: 8d68 30bf 41a4 fd3e 7661 4dbf 9a4a 0ebf
00000050: 9631 3a3f dd98 683f 4f7a 50bf 26b3 4e3f
00000060: 96a6 123f 053d 55bf 470d c83e 0349 113f
00000070: b6fd 36bf 4972 1f3f 2723 343f a641 31bf
00000080: 48d6 1fbf dc10 2e3f 99bd 54bf 647b 303f
00000090: c8e6 283f 3e49 0dbf 4b7c 2abf 379d 163f
000000a0: 3d7b 2b3f 4afd febe 8a66 513f f0ad f0be
000000b0: a5ba 37bf ba4e fd3e ef41 2b3f 2fed 2c3f
000000c0: 0990 423f 9ebc 4dbf f997 4abf 9b7e fd3e
000000d0: 7dd7 c4be fc86 3d3f 49bc 2bbf 1f8d e7be
000000e0: def5 1a3f 1cfa 343f c24a 17bf b89a 623f
000000f0: 457e 253f 6822 5abf dccc 51bf b814 1c3f
-0.74853045 0.7887578 -0.87092835 0.8954944 -0.8403247 0.50144416 0.762802 0.932284
-0.76858723 0.7772035 0.56855935 0.7075621 -0.93167156 -0.51674163 -0.44280222 0.8150519
-0.6890953 0.49539378 -0.8022684 -0.5558258 0.7273191 0.9085825 -0.8143663 0.8074211
0.5728544 -0.83296233 0.3907263 0.5675203 -0.7148088 0.6228376 0.7036614 -0.69240797
-0.6243634 0.67994475 -0.83101803 0.6893828 0.65977144 -0.55189884 -0.66595906 0.5883364
0.6698492 -0.4980262 0.8179709 -0.47007704 -0.7176917 0.49474126 0.6689748 0.67549413
0.7600103 -0.8036593 -0.7913814 0.49510655 -0.38445655 0.74034095 -0.67084175 -0.45224854
0.60531414 0.70694137 -0.59098446 0.8851733 0.64645797 -0.8520875 -0.81953216 0.60969114

StatefulPartitionedCall/conv2d_transpose_2/BiasAdd/ReadVariableOp f4 [3]
00000000: cd7b 1bbf d536 16bf 7831 f2be
-0.6073578 -0.5867742 -0.47303367

StatefulPartitionedCall/conv2d_transpose_2/conv2d_transpose/ReadVariableOp_transposed f4 [3, 3, 3, 64]
00000000: da59 7c3c 8169 8dbd 2782 9b3e 1b7a 30bd
00000010: a102 1dbd 29b3 7f3c 28b8 96bc 01f9 7fbe
00000020: dc9c 1ebe 3735 a8bd 6ca9 a2bb 09f9 8dbd
00000030: b7a0 813e d88a 373d 19d1 17bc 2aaa c8bd
00000040: 8fce 133d 02a2 813c af28 0f3e 8a0c fe3c
00000050: 0a2f 00be 1d33 873d 9f85 3abc 150c f5bd
00000060: a0e7 b2bd 51ad a23c 6584 97bc 5a99 8d3c
00000070: bbad 893d 78b7 e7bb 740c 2c3d c489 3ebe
00000080: 9916 ca3d addb afbc c4a1 6a3d bf6c de3d
00000090: 3dd1 41bd 45b2 8b3d 843e 383d 0cb7 003e
000000a0: fe7b 9e3d ccdd 1abe f3e2 17be 6fe1 d3bc
000000b0: d830 3c3c 063d b13d b1ad b9bd c704 29bd
000000c0: 2e10 e63c 86ae 9c3d ef72 303d 2a17 95bd
000000d0: 2e61 8c3c 5b4a 0dbe 3e4d cdbb 1d46 a4bc
000000e0: 2901 80bd adb9 72bc 4dcf a23c 18e1 973d
000000f0: 36dd 883c 58a8 b13c 817d 5c3c f233 f2bc
00000100: 0eb9 8c3b 57a1 4fbc a6c0 a33e 5209 be3c
00000110: d292 b33a 4f80 303c 6824 dfbb 77d6 8ebe
00000120: 9ce1 d5bd 03de ccbd 7401 833d 74b7 b3bd
00000130: 691e 933e fa4c 0f3e 98f4 2fbd df3d e9bd
00000140: 7a12 86bd 835e 773d f6ce 983e 46e2 99bd
00000150: 394b 02be 9250 f93c 9f07 54bd e282 9dbd
00000160: 7dea 213a 570a 723d 927a 123d 008a 6b3d
00000170: b843 b33c d92b 2fbb bd65 a23d 6a73 9dbe
00000180: 5c5f 423c d1e4 083d f0f7 1d3d 85e1 a43c
00000190: 0c2d 183c 3b86 35bd 5206 3b3d d169 d23d
000001a0: 06d3 e23d 9727 35be 1b8b 72be b0d8 5fbd
000001b0: 20f7 46bd e930 fe3d f1c2 82bb d21a a13c
000001c0: 4268 33bd 0055 113e 2cfb bebc 807e 933c
000001d0: 8212 a2bc 3d15 56bd 1730 35bd 05cd 6bbd
000001e0: 67eb 853c 7b10 bebc b0fb aebc aae7 e1bd
000001f0: b24c ae3c 77d4 1c3e fb5b 9abb 1e0c 50bc
00000200: 2ed1 e63b 6c5e 04bd 2a64 b93d af11 efbc
00000210: 1681 743d 3546 86bc 55bf 26bd 4afa 86be
00000220: bba4 9a3d d7fc b6bd b0f4 9b3d a142 08be
00000230: f18c 033e bc92 02bc 9d4f ebbc 8ba1 10be
00000240: 958d 5fbc f6af 7c3d 6cb0 0b3e 71b9 2cbb
00000250: 8a6b 8abd 125c 06be e546 1e3d 7ec2 e4bc
00000260: a79e 71bc 34e1 b23c a0bc 26bb f64e ff3c
00000270: 8c57 383d 6a05 8d38 e412 2c3d c07f 57be
00000280: 9646 6f3c 5272 133c 0458 2f3d c9a1 1fbe
00000290: 3ec3 09bd 7076 d0bb 5427 003d 6cdf c93d
000002a0: c21b 633d 4eba 6ebe 23b6 3cbe 0e73 1abd
000002b0: b7f1 503c f8ea 923d 9715 92bc d082 723c
000002c0: d1fa d0bd c8fa 58bc 51cd 8bbc cd7b a73c
000002d0: e5b3 103d 66b4 933d c74d 68bc cb21 11bd
000002e0: 78c2 acbc 9959 1cbb 4c69 4dbc d77f 33be
000002f0: ce1d 533c c045 95bc 488c 963d 5971 cb3b
00000300: 0330 00bd 7ed9 45be b2c4 2f3e ccf6 c6bd
00000310: 0dfc 80bd b9cb 883d bacc c63d b86f 4ebe
00000320: e420 47be 77cd 0bbe e4a3 4bbd 2be1 b03a
00000330: 1632 643e d01b 563e baad 99bd b1e7 27be
00000340: 6dff 223e a53e 723d 19ba cd3d 16d3 383e
00000350: cb7f 27bd 694f fc3d e482 ec3d c0c2 23be
00000360: 7035 44be 3bfd d43d a5b4 42bd fd13 333d
00000370: d2fe 123e cdfb 0cbe 037d 86bd 99cf 6bbd
00000380: 0d0f 753e 573d 22be 02cc 253e c2a6 1b3e
00000390: b439 41be 4e76 683e 6091 143e a543 1a3e
000003a0: 8c14 ebbc dc6b 2e3d 0e64 bcbd f634 5cbd
000003b0: ed13 243e 0c8a 803d f2db 61be 381a eebd
000003c0: 3398 113e 8c2d 033e 2f96 1f3e 5da0 34be
000003d0: d83c 4b3c 1bd4 8bbe bdac 86bc ae0f c0bd
000003e0: 7e13 3bbe afd0 f13c f711 a23d e383 3c3e
000003f0: c280 c93c dab0 a13e dc29 e03d 33f1 7a3c
0.015402282 -0.06904889 0.30372736 -0.0430852 -0.038332585 0.01560668 -0.01839836 -0.24997331
-0.15489525 -0.08213275 -0.0049640443 -0.06932265 0.25317928 0.044810146 -0.009266161 -0.09798081
0.03608566 0.015824322 0.13980363 0.031011838 -0.12517944 0.06601546 -0.011384397 -0.11965195
-0.08735585 0.019858034 -0.018495748 0.017285038 0.067225896 -0.0070714317 0.042004064 -0.18607241
0.098675914 -0.021467054 0.057283178 0.108605854 -0.047318686 0.068211116 0.044981495 0.12569827
0.077384934 -0.15123671 -0.14832668 -0.025864331 0.011486255 0.086542174 -0.09066332 -0.04126432
0.028083887 0.07650475 0.04307836 -0.07279809 0.017136183 -0.13797896 -0.0062653115 -0.020052964
-0.06250221 -0.014814776 0.01987424 0.0741598 0.016707044 0.021686718 0.013457657 -0.029565785
0.004294521 -0.012672744 0.31982917 0.023197804 0.0013700372 0.010772779 -0.00680976 -0.27898
-0.10443422 -0.10003283 0.063967615 -0.08775225 0.2873414 0.13994208 -0.042957872 -0.11388754
-0.06546493 0.060392868 0.298454 -0.07513861 -0.12724008 0.030433927 -0.05176508 -0.076909795
0.0006176604 0.059091892 0.035761423 0.057504654 0.021882877 -0.0026729016 0.07929561 -0.30752116
0.011863556 0.03342134 0.03856653 0.020127067 0.009288084 -0.044317465 0.045660324 0.10274089
0.11075406 -0.17690884 -0.23685877 -0.05465001 -0.04857552 0.124116726 -0.003990524 0.01966611
-0.0438006 0.14192581 -0.023313127 0.018004656 -0.019784216 -0.05226635 -0.044235315 -0.05756857
0.0163476 -0.023201218 -0.021360248 -0.110305145 0.021276806 0.15315424 -0.004710672 -0.012698201
0.007043979 -0.03231661 0.09052308 -0.029183237 0.05969342 -0.0163909 -0.040709812 -0.2636283
0.07550951 -0.08934944 0.0761503 -0.13306667 0.12846734 -0.0079695545 -0.028724486 -0.14124124
-0.013644596 0.061691247 0.13641518 -0.002635565 -0.06758793 -0.1312106 0.03864183 -0.027924772
-0.014747298 0.0218359 -0.002544202 0.031165581 0.045005366 6.7244124e-05 0.042010203 -0.21044827
0.014604231 0.008999424 0.042808548 -0.1558906 -0.033633463 -0.006361775 0.031287506 0.098570675
0.055446394 -0.23313257 -0.18428855 -0.03770738 0.012752942 0.07173723 -0.01783256 0.014801696
-0.102040894 -0.013243385 -0.017065676 0.020444775 0.03532781 0.07212143 -0.0141787 -0.035432618
-0.021088824 -0.0023857115 -0.012537312 -0.17529236 0.012885524 -0.018221736 0.07350975 0.0062085805
-0.031295788 -0.19321248 0.17164877 -0.097150415 -0.06298075 0.06679482 0.09707017 -0.20159805
-0.1944614 -0.13652597 -0.049716845 0.001349484 0.22284731 0.20909047 -0.07503839 -0.16396977
0.1591775 0.059141774 0.10045261 0.18049273 -0.040893357 0.12319834 0.11548403 -0.1599226
-0.1916101 0.103998624 -0.047535557 0.043720234 0.14355019 -0.1376793 -0.06566813 -0.057571027
0.23931523 -0.15843712 0.16191104 0.15200332 -0.18869668 0.2270138 0.14508581 0.15064867
-0.028696321 0.04258333 -0.091987714 -0.053761445 0.16023226 0.0627633 -0.22056559 -0.116260946
0.14218216 0.12810344 0.15584634 -0.17639299 0.012404643 -0.2731026 -0.01643979 -0.09377991
-0.18269154 0.029518453 0.07913583 0.18409686 0.02459753 0.3158024 0.10945484 0.015316295

StatefulPartitionedCall/depthwise_conv2d_6/depthwise/ReadVariableOp f4 [1, 3, 3, 3]
00000000: bdab 293e b780 2e3e 5780 3b3e 818d 3e3e
00000010: bb15 443e a038 5ebc cdb3 ab3c 33c8 973c
00000020: 0e78 2f3e c831 0ebc a5f7 71bb ad82 4b3e
00000030: e09d d73a 0e41 8538 ab1f edb9 df9e 113c
00000040: c755 d53b d37e 4b3e 298a 333e e531 273e
00000050: 5199 8e3c 577f 3c3e b17f 433e 291d 553c
00000060: 1c35 283c f81e d63c b86d ec3c
0.16569419 0.17041288 0.18310677 0.18608667 0.19148915 -0.013563305 0.02095976 0.01852808
0.17135641 -0.008678861 -0.003692129 0.19874068 0.0016450249 6.3540516e-05 -0.00045227757 0.0088879755
0.0065104696 0.19872598 0.17533173 0.16327627 0.017407091 0.18407951 0.19091679 0.013007441
0.0102665685 0.026137814 0.028860912

StatefulPartitionedCall/depthwise_conv2d_6/depthwise_bias f4 [3]
00000000: 4846 eebe c28d e3be 7efe 1cbe
-0.46537995 -0.4444409 -0.15331456

StatefulPartitionedCall/sequential_1/residual_in_residual_block/residual_dense_block/depthwise_conv2d/depthwise/ReadVariableOp f4 [1, 3, 3, 64]
00000000: cd32 44bc c5a3 74b9 c873 fe3c 2be1 0e3d
00000010: 6d33 6b3b d9dc ae3c 4508 e9bb 421f da3c
00000020: 2beb 06bc 6df0 80bc 2bee 1cbb 935f 943a
00000030: 4b38 883d bb48 d73c b3ba 393b add2 213d
00000040: 9beb 123b 4990 863b 3f48 4a3d 9030 99bb
00000050: bb9d 973d 6784 03be 873a f53b 8121 053d
00000060: 5f05 ecbb b86a bbbb 172c c43a ad20 53bb
00000070: 098e 14bc 4d04 fa3b f4f4 9c3c 4d8b 23bc
00000080: 684b e5bc fffb 98bc 7788 bdbb b25d 08be
00000090: 2504 88bc 5b5c 86bc 965e c5bc 965e 26be
000000a0: 6240 5bbd b774 19bd c702 503d aaa7 4e3a
000000b0: 3350 21bc f840 adbc c128 45bc 4602 48bc
000000c0: 7389 c7bd 4f57 8f3b 85f1 543d d3a4 fb3c
000000d0: 4aa4 3ebb 2b1b f33c 80ef 043c 577b 3bbb
000000e0: 732b bcbc 0c4e 37bc 8f5b 11bc 5f28 0dbe
000000f0: 98fc 16bc a72a c6bc 67ea 3abb 6abb 8fbc
00000100: 28e3 83bc da09 543b 684a 653d 875a bbbb
00000110: 9635 88bd a2fb 8d3c e252 69bb 4bcd 263d
00000120: 6383 c6bd 7ab2 cfbb 0241 a93a a770 793d
00000130: 53c9 9f3d 7d08 cfbc eddc 843c ffde 3f3d
00000140: b58e 313c 45cb 5a3c ab7f 91bc 9a57 333c
00000150: 804b 703d cd92 babc 9b81 25bc ab34 44bd
00000160: 9a59 13bb e8b5 a2bc d794 653c 5242 de3a
00000170: 2c30 87bb 1b40 a63c 03c4 1d3d bb27 cbbd
00000180: 1bad 80bb 7f0f a63b 0f8f 8abb e782 71bd
00000190: cf53 e03a f850 eb39 df2a 79bb 7540 2cbe
000001a0: 9e30 b7bd 1804 56be e31f af3d 4dad 3b3c
000001b0: 7d7e cf3a 202c d8bb 649e 03bb 18c2 813b
000001c0: 6bf8 e03d 2ffc 8c3c c5c3 c1bc 95a7 4f3c
000001d0: b0c4 423c 2009 a5bd 03ed 32bc 2426 423c
000001e0: 5786 7039 b582 82bb 79e8 c3bc 129a e63d
000001f0: 84ab 433c b106 b13c 9c58 02bc 1329 353b
00000200: f8f5 43bc a8ce 213b f81c dabd df04 653d
00000210: 7bb8 e23b 6fed f0bb dac0 3fbc 18d5 bcbd
00000220: 595a 063e 4f36 42bc 07a7 03bc 0936 8c3d
00000230: 1c18 a4bd 7ce9 18bd 5ddf 87bb f2ef 713d
00000240: afde 703c bd4a 463c a2b5 10bc b651 aaba
00000250: f3a3 a8bc bf9a 1f3e e065 863b 77cd 01be
00000260: 343b 903b ab87 bfbc 7aa3 edb9 63f4 7c3b
00000270: 98d2 52bc 35af 53bb b33f 273c 564f 273e
00000280: effb af3a 370d b3bb fb25 80bc 4f5f b53d
00000290: 3517 fabb fb46 13bc 557a ca3b cb6a 5ebd
000002a0: 95c7 7bbd 6443 40be 316f bd3d 534b c7b9
000002b0: a79c a8bb 8555 bcbc 07ef 053c 2337 fe3a
000002c0: c716 0e3e 4ae2 353b 5d13 093d c89a d23b
000002d0: a3aa 23bc 3c76 03be fdc0 e13b 8a27 22bc
000002e0: 28c4 22bc 7ae9 37bc 7181 0ebd dbd3 373d
000002f0: dac5 21bc 1005 eabd d34b a13c db50 01bc
00000300: 7af0 aabb db08 79ba 4bab af3c 236a 34bc
00000310: 8da8 64bd 6209 eb3b 6f67 d5ba 6b34 d83d
00000320: 37b8 68bd 579b 003c 9798 7f3c 7fbd bdbd
00000330: 001c 913d 18f9 953d 3bdd 0c3c 0251 b23d
00000340: 9839 093c 107c 883c 0f28 46bd ef7b 243c
00000350: a34b ce3c a7e5 34be 0a66 56bb d67c 9a3c
00000360: 4f26 b33c 4c8e 3bbc 6db2 753c a5c4 e03b
00000370: 480e 77ba 0773 103c 0734 7b3c 3522 c5bd
00000380: e7b7 073c 432c 18bb 0425 07bc 2398 15be
00000390: 8de8 d73a 87dc dc3b a426 433b 836f a1bd
000003a0: 58a8 833d 2304 263e 5e50 2dbd 36e9 1d3c
000003b0: 9e46 093a f8c2 f53c 7729 213c e7fa bf3b
000003c0: c7ec 1ebe 1fe8 7b3c cbe9 d13c 551a 613d
000003d0: 5b06 d13b 7710 ff3c 50e7 1a3c c7ab ca3b
000003e0: ad00 92b9 8fde 16bc daf6 153c d54c 2cbe
000003f0: 844f 13bc 92fd ea3b 4798 06bd b58a dbba
-0.0119750025 -0.00023330662 0.031061068 0.034882706 0.0035888806 0.021345543 -0.0071115815 0.026626233
-0.008234779 -0.015739644 -0.002394567 0.0011319987 0.06651362 0.026279798 0.0028340041 0.039507557
0.0022418264 0.0041065556 0.049385305 -0.0046749786 0.074031316 -0.12843476 0.0074837836 0.032502655
-0.0072027887 -0.005719509 0.0014966753 -0.0032215521 -0.009067067 0.007629907 0.019159772 -0.009981942
-0.027990058 -0.018674849 -0.00578409 -0.13316992 -0.016603539 -0.01640146 -0.024092954 -0.16247019
-0.053528197 -0.037464824 0.0507839 0.000788326 -0.009845781 -0.021149144 -0.012033642 -0.012207573
-0.09743013 0.0043744217 0.051988143 0.030718243 -0.0029089623 0.02967604 0.008113742 -0.0028607452
-0.022969937 -0.011188041 -0.008871927 -0.13784932 -0.0092154965 -0.02419026 -0.0028521062 -0.01754542
-0.016099527 0.0032354505 0.055979162 -0.005717579 -0.06650846 0.017331902 -0.003560238 0.040723126
-0.09693029 -0.0063384147 0.0012913051 0.06089845 0.078020714 -0.025272602 0.016218627 0.046843525
0.010837247 0.013354127 -0.017761072 0.010946179 0.058665752 -0.022775078 -0.010101701 -0.04790179
-0.0022483827 -0.01986213 0.014012537 0.0016957021 -0.0041256156 0.02029424 0.03851701 -0.09919687
-0.003926886 0.0050677652 -0.0042284797 -0.05896273 0.0017114821 0.0004488302 -0.0038019938 -0.16821463
-0.0894482 -0.20899999 0.08551004 0.011454892 0.0015830543 -0.006597057 -0.0020083422 0.0039599054
0.10984882 0.017210094 -0.02365292 0.012674232 0.011887714 -0.08058381 -0.010920766 0.011849914
0.00022938229 -0.0039828666 -0.023914563 0.11259855 0.011942748 0.021609636 -0.007955696 0.002764289
-0.011960499 0.0024689827 -0.106500566 0.05591285 0.0069189644 -0.007352523 -0.011703694 -0.09220332
0.13120402 -0.0118537685 -0.008035428 0.06846244 -0.08012411 -0.037332043 -0.0041465 0.05906672
0.014701529 0.01210278 -0.008832367 -0.0012994322 -0.02058599 0.15586375 0.0041015 -0.12676035
0.004401589 -0.023380121 -0.00045325962 0.0038597814 -0.012867592 -0.0032300476 0.010208058 0.16338858
0.0013426522 -0.005464222 -0.01564311 0.08856069 -0.007632161 -0.008989091 0.006179134 -0.054301064
-0.061469633 -0.18775707 0.09249724 -0.0003801236 -0.0051456275 -0.022989998 0.008174664 0.0019395094
0.13875876 0.0027753287 0.033465732 0.006427143 -0.009989413 -0.12838072 0.006889461 -0.009897122
-0.009934463 -0.011225099 -0.034791414 0.044879775 -0.009873832 -0.11426747 0.019689476 -0.007892813
-0.0052166553 -0.0009499916 0.021443984 -0.011011633 -0.055824805 0.0071727494 -0.0016281436 0.10556873
-0.056816306 0.007849536 0.015600345 -0.09264659 0.07085419 0.073229015 0.008597667 0.08706857
0.008375548 0.01666072 -0.048378047 0.010039314 0.02518255 -0.1766573 -0.0032714629 0.018858355
0.021868853 -0.0114475 0.014996153 0.0068593794 -0.00094244303 0.008816487 0.0153322285 -0.09625665
0.008283592 -0.0023219741 -0.008248571 -0.14608817 0.0016472504 0.006740156 0.002977767 -0.07882597
0.064285934 0.16212516 -0.042312972 0.009638121 0.0005236658 0.030000195 0.009836546 0.0058587673
-0.15520011 0.015375166 0.025624176 0.054956753 0.0063789315 0.03113578 0.009454563 0.0061850282
-0.00027847794 -0.009208336 0.009153092 -0.16826184 -0.008991126 0.007171341 -0.032860067 -0.0016749712

StatefulPartitionedCall/sequential_1/residual_in_residual_block/residual_dense_block/depthwise_conv2d/depthwise_bias f4 [64]
00000000: bf7f 19be 132f 223e bf57 32be d9c4 373e
00000010: c87d 2bbe 8d19 cd3d f695 1c3e cd70 3d3e
00000020: 329d 1ebe aebd 1e3e ca48 e93d 1845 0f3e
00000030: ca78 3ebe 2346 d5bd 9bac b5bd e9f5 263e
00000040: c83f 0dbe f030 cb3d a8e6 23be 3f35 e2bd
00000050: 4738 153e baab 3a3e c676 26be 19c9 243e
00000060: fd92 e93d bfd6 2abe d1a1 9f3d cbab e83d
00000070: ff45 12be 076f fe3d 93fd 0f3e 797b 0cbe
00000080: eb67 febd c294 0b3e a77b 2abe 23b1 0e3e
00000090: bf3e 073e e348 e1bd c825 08be a26d f03d
000000a0: 5b33 093e 3c67 cabd 465e 273e 48b6 bfbd
000000b0: 2e1f 13be 40bd ca3d bafb 083e eecd 093e
000000c0: cb48 1b3e f7dc 23be ef00 22be b67f ca3d
000000d0: c867 9dbd 5f44 173e add3 09be 3f1d b9bd
000000e0: b031 f73d 95a9 103e e570 f2bd eabc 333e
000000f0: 39a4 043e b88a 2ebe e062 27be c83b f93d
-0.14990138 0.1583827 -0.17416285 0.17946185 -0.167472 0.10014639 0.1529158 0.18500061
-0.15489653 0.15502045 0.113908365 0.13991201 -0.18600765 -0.10413768 -0.088708125 0.16304745
-0.13793862 0.099214435 -0.16005957 -0.11045312 0.1457225 0.18229571 -0.16256246 0.16092338
0.11404989 -0.16683482 0.07794536 0.11360892 -0.14284514 0.124235205 0.14061575 -0.13718976
-0.124221645 0.13630965 -0.16648732 0.1393476 0.1320753 -0.1100023 -0.13295662 0.11739661
0.13398497 -0.09882972 0.16344556 -0.09360939 -0.14367363 0.09899378 0.13377276 0.13457462
0.15164487 -0.1600226 -0.15820669 0.0988764 -0.0768581 0.14772175 -0.13459654 -0.090387814
0.12070024 0.1412719 -0.11837939 0.17552534 0.12953271 -0.17045105 -0.16346312 0.121696055

StatefulPartitionedCall/sequential_1/residual_in_residual_block/residual_dense_block/depthwise_conv2d_1/depthwise/ReadVariableOp f4 [1, 3, 3, 64]
00000000: 4946 c23c 4e2b 1cbe b4d9 60bd f59c a4be
00000010: b108 b83c 8a08 e83d aed3 263e d9c2 10bf
00000020: d191 e4be e8c0 263e 8d68 23bd 528c 67bf
00000030: 5db5 af3c ad8f e9be 9c7e 5d3d ce35 2cbf
00000040: 1697 b73c f3aa 7b3d c629 493d 1ea0 873c
00000050: 91fb 3bbf a3da 4fbf 1749 66bd ad80 ecbe
00000060: 5a2c a33d bbbc 95bd 24eb ac3c c9ec 643d
00000070: dd87 103d 6716 d1bd 92c3 10be 7e20 d0be
00000080: 1447 3e3e ef55 3fbe c751 4a3e 9109 70bf
00000090: daa1 3cbc ee6c 50bd 5e7c b5bd 7b1e 3cbf
000000a0: 9ac5 fabe d966 d9be 231e 54bf 3d3f d53c
000000b0: bab3 f3bc 7ce2 68be e5ea 883d a02e 0f3d
000000c0: d59d 46bf 6363 a83e 5299 453e 8177 c4bd
000000d0: f5fc bfbc 7fb9 40bf 2e3a d23d 3455 333c
000000e0: 9dc1 4f3c 5ad8 a4bd 4d42 15be be96 2cbf
000000f0: 8798 16be bb64 15be 56ed ebbb 462a 083d
00000100: 1e5b 063e 8bd2 a0bd d109 633e 8262 99be
00000110: e443 36be b69d 323e d680 853e b3f0 52be
00000120: 2f11 1c3f 812c 443e 2c7f 1a3c 1a11 5bbf
00000130: f4aa 0b3f f809 863d 48be d43d 4a96 22bf
00000140: c4b2 213d 5d43 9c3d bf4e 0ebe fb5c 293d
00000150: 5890 42bf aab3 9b3e fc27 a9bc bd22 0abe
00000160: 04f3 c93d b4d4 35bc 96db 823d b550 473d
00000170: db1e 7f3d 8191 4f3d 3677 903d 21eb c23c
00000180: 8ab0 643e 9b4f 353d c73c 5d3e 9281 31bf
00000190: a1a8 7e3d aeb2 f8bb 455e 483d 62a2 4fbf
000001a0: 9853 f2be 3bb6 12bf e2b3 35bf d820 5b3d
000001b0: 7d48 c63c ade1 03be b53c 9b3d 5cc9 733d
000001c0: 5f29 dd3e b73d bd3e a17b 9dbd 4f30 113e
000001d0: b027 623d 573e 88be 656d e7bc 4ad9 803d
000001e0: ee17 bf3d 5e4e a33d a74a 21bd f2bd 2a3f
000001f0: cb26 643e bde5 ef3e 3b15 f63c f4b2 093e
00000200: 2583 a63e 405f d7bd 4aae e4be 6388 e3bd
00000210: 3a88 ac3e bf98 f23d feb6 8c3b 9026 1bbf
00000220: 96f6 1bbf 87cd 903d 8325 14be ffe4 6dbf
00000230: ca92 abbe 4ec8 b1bd b102 333d cc41 2fbf
00000240: 2d56 a7bb cdf7 ecba 1b55 41be 1290 4fbd
00000250: 088c 6cbf e6c2 04bf 2589 903c 75a9 83be
00000260: 2cf1 2b3d ecfc c0bc e95b 0ebd 4380 7cbc
00000270: 873a 493d 7ac3 bbbd 360b 8dbc 5aa9 c93e
00000280: 43d5 623e acb4 f6bd 9630 503e b1a3 83bf
00000290: c269 3d3d beef 29bd 7690 4d3e 7aa8 07bf
000002a0: 414d eebe e506 84bf 14c0 6ebf 4575 92bc
000002b0: 6904 c9bc 44b3 53be b7e7 213d 403d 073d
000002c0: d30f 8dbe 89b6 cb3e 6a68 eebd 352e 63be
000002d0: 530b 84bc bfaa 78be 3766 b43d 339e a9bc
000002e0: e9fa b13d c0bc 8abd 21f2 c03e 8322 1cbf
000002f0: 1e37 27be 5e7f 07be f76c 463c 5f70 043e
00000300: c835 cdbd 167d f2bc 1aeb 36bc 0178 eabd
00000310: 7e32 90be cb22 8a3d da68 7e3e ee5d ec3d
00000320: 28a6 afbe b945 56bc 738b 483d 2cab 37bf
00000330: c268 4abe 3daf d5be 922c 733d c878 233f
00000340: 8031 a83d 04b8 e63d 6339 debe bbf3 ad3d
00000350: 1ea6 abbe 2f7f 72bf 1028 05bd 65f1 04bf
00000360: 460c 043e a226 07bd f38a a93d 481d e13d
00000370: f98e 223c 6c92 cf3c 2712 33be 167d 4ebe
00000380: 087c 463e fc97 d4bd b999 c33b db95 41bf
00000390: 354f c93c 915d 323d 947d 07bd 14b0 55be
000003a0: 4921 493e 84c9 783d a14b 31be bd52 623d
000003b0: badf ad3c 8b9e 983c 20ef f13d 07a5 523d
000003c0: 3189 57bf 0ed1 cd3d 4e72 2a3e 8c34 b3bc
000003d0: 8f29 cc3c 3d19 5cbf 142f 143d 5c1a 233d
000003e0: 4039 383d fe11 9e3c 2caa f13d 5bd7 3ebf
000003f0: ce98 10be b918 9c3e 9dc1 d1bd a234 a43d
0.023715155 -0.15250894 -0.054895118 -0.32151 0.022465082 0.11329754 0.16291687 -0.56547314
-0.446425 0.16284525 -0.03989463 -0.90448487 0.021448785 -0.45617428 0.054075822 -0.672696
0.02241091 0.061442327 0.049112104 0.016555842 -0.73430735 -0.8119299 -0.056222048 -0.46191922
0.07967444 -0.07311388 0.021108218 0.05588988 0.03528582 -0.10209351 -0.14137104 -0.4064979
0.18581802 -0.18685125 0.19757758 -0.937646 -0.011513198 -0.050885133 -0.08861612 -0.7348401
-0.48978883 -0.4246128 -0.82858485 0.02603113 -0.029748786 -0.22742647 0.066854276 0.034956574
-0.7758458 0.32888326 0.19296768 -0.09593106 -0.023436049 -0.75283045 0.10265003 0.010945607
0.012680438 -0.08049078 -0.14576073 -0.67417514 -0.14706622 -0.14589207 -0.0071999235 0.03324344
0.13120696 -0.07852658 0.22171713 -0.29957968 -0.17799336 0.17442974 0.26074857 -0.20599632
0.6096372 0.19157602 0.009429734 -0.8557297 0.5455773 0.0654487 0.10387856 -0.6351057
0.039477125 0.07630036 -0.13897227 0.04134844 -0.760015 0.3041051 -0.020648949 -0.13489814
0.09860805 -0.011098076 0.06389539 0.048660953 0.062285285 0.050675873 0.07053988 0.023793759
0.2233297 0.04426537 0.21605216 -0.69338334 0.062172536 -0.0075896597 0.048918027 -0.8110715
-0.47329402 -0.5730931 -0.70977604 0.05349812 0.024204487 -0.12879057 0.07579938 0.059518203
0.43195626 0.36961147 -0.07689596 0.14178585 0.05521363 -0.26610062 -0.028250406 0.062914446
0.09330736 0.07973932 -0.039377835 0.66696084 0.22280423 0.46854964 0.03003942 0.13447171
0.3252193 -0.10516214 -0.44664222 -0.11109998 0.33697683 0.1184554 0.0042942753 -0.60605717
-0.60923135 0.07070451 -0.14467435 -0.92927545 -0.3351043 -0.08680783 0.04370374 -0.68459773
-0.0051067085 -0.0018079221 -0.18880121 -0.050674506 -0.9240117 -0.5185989 0.01764352 -0.25715223
0.041978046 -0.023558103 -0.03475562 -0.015411439 0.04912808 -0.091681436 -0.01721726 0.39387017
0.22151665 -0.12046179 0.20331034 -1.028433 0.046243437 -0.0414884 0.20074639 -0.5299145
-0.46543315 -1.0314604 -0.9326184 -0.017878184 -0.024538236 -0.20673853 0.03952762 0.033017397
-0.27551135 0.397877 -0.11641009 -0.22185595 -0.016118681 -0.24283884 0.088085584 -0.020705318
0.086904354 -0.067742825 0.3768473 -0.6099016 -0.1632962 -0.1323218 0.01211094 0.12933491
-0.100200236 -0.029600661 -0.011164451 -0.1144867 -0.28163522 0.067449175 0.24844685 0.11541353
-0.34306455 -0.013078147 0.048961114 -0.7174556 -0.19766524 -0.4173526 0.059368677 0.6385617
0.082125664 0.11265567 -0.43403158 0.084937535 -0.33525175 -0.94725317 -0.03250891 -0.5193084
0.12895307 -0.032995827 0.082784556 0.10991913 0.009921783 0.025338374 -0.17487393 -0.20164904
0.19383252 -0.10380551 0.005969253 -0.75619286 0.024573902 0.043546263 -0.033078745 -0.2086795
0.19641604 0.060739055 -0.17314006 0.055254687 0.021224845 0.018630287 0.118131876 0.051426914
-0.8419371 0.1004964 0.16645166 -0.021875642 0.02492216 -0.8597601 0.03617771 0.03982006
0.044976473 0.019295689 0.11800036 -0.74547356 -0.1412079 0.30487612 -0.10242007 0.080178514

StatefulPartitionedCall/sequential_1/residual_in_residual_block/residual_dense_block/depthwise_conv2d_1/depthwise_bias f4 [64]
00000000: 5347 aabe 6106 353f f367 933e 5e87 703f
00000010: c83b 743e 724d d13e af5d 463f a2eb d33e
00000020: df9a e53e 076b 053f 210d 003f 0384 a13f
00000030: 732e 633d 4540 54bd fd3d d7be b952 953f
00000040: c904 3fbf 0ead 9f3e dc2a 49bd cac7 1fbf
00000050: 810a 763f bbce a23f 0b73 5abf 5f47 143e
00000060: ede1 f73e d023 dd3b abc0 a03e e8e5 f43e
00000070: 12ca 25bf 81bc 1c3f 46ba 5f3f 3e7d 383e
00000080: 88d6 c6be a67a 4a3f 781e 36bf bd46 7c3f
00000090: a192 113f 6896 0bbf 8055 04bf 488a 863f
000000a0: 37d3 793f c9ba 0b3f 1e3b 983f 6742 fcbe
000000b0: 32c5 41bf 9894 1c3f a933 083f 9f11 1b3f
000000c0: 89af a03f 99e7 24bf 6254 45bf e48f 303f
000000d0: b2d0 c3be d6fd 063f 39f9 1bbf eb0a f4be
000000e0: 9be1 b33e 3bd7 b23e 1f40 1fbf 51c4 9a3f
000000f0: c206 143f b159 8c3e d1f8 51bf 7785 b83e
-0.3325754 0.7071286 0.28790244 0.93956554 0.2385093 0.408794 0.774867 0.4139071
0.4484472 0.52116436 0.50020033 1.2618412 0.05546422 -0.051819105 -0.4203948 1.166587
-0.74616677 0.31186718 -0.04911314 -0.6241423 0.9610978 1.2719339 -0.8533179 0.14480351
0.48414555 0.006748654 0.31396994 0.47831655 -0.6476146 0.61225134 0.87393606 0.18016526
-0.3883555 0.79093397 -0.7114024 0.9854544 0.5686436 -0.54526377 -0.5169296 1.051095
0.97587913 0.54581887 1.1893041 -0.4926941 -0.7569152 0.61164236 0.5320383 0.6057376
1.2553569 -0.6441589 -0.7708188 0.6896956 -0.3824516 0.5273107 -0.6092716 -0.4766458
0.3513306 0.34929833 -0.62207216 1.2091161 0.5782281 0.2741218 -0.8202029 0.36039326

StatefulPartitionedCall/sequential_1/residual_in_residual_block_1/residual_dense_block_1/depthwise_conv2d_2/depthwise/ReadVariableOp f4 [1, 3, 3, 64]
00000000: 2498 4abc 2749 0aba c036 f53c 4de0 123d
00000010: 6fe1 6d3b f59c ac3c 5fef f4bb e179 033d
00000020: 7e49 833b 8e3f 85bc 564f 32bb 2738 6a3c
00000030: a43b 8c3d 3271 153d 6dc5 143b 6063 9f3d
00000040: 17e2 e83a fa1c 743b 8d44 4d3d 5b6f 9dbb
00000050: 3d75 a73d f00e e4bd c751 0b3c 6f2e 163d
00000060: 64ef 02bc de61 b9bb d31a b33a 102f 67bb
00000070: 56c8 17bc b31e 003c ffeb a33c 0222 9539
00000080: 87fd f8bc 8b4a 96bc 981b d1bb 8f0e ffbd
00000090: 82d9 8bbc 27ec 89bc b741 ccbc dc14 24be
000000a0: 06ef 49bd 20ed ddbc caf8 693d 23d5 553a
000000b0: 9b31 26bc 8e31 a9bc 576e 51bc 2d61 54bc
000000c0: c41c a5bd 1f72 e93a 0317 583d a6f8 003d
000000d0: 6b9d 4ebb e7ab 183d d005 093c 97f9 52bb
000000e0: 5767 c1bc 8eb9 35bc 65b9 0dbc 27be 07be
000000f0: ec08 19bc 4a5c debc 4ab9 10bb 635e 92bc
00000100: 06b1 88bc 72e5 523b 35ac 693d af95 61bb
00000110: c233 89bd b854 8a3c bd74 6ebb a50f 333d
00000120: bfc4 c3bd 1a28 e2bb b337 b23a 07a1 943d
00000130: 5349 9b3d 65b6 0bbd f7f5 823c 24c5 b53d
00000140: 2653 363c f30b 593c c904 94bc 88be 353c
00000150: e7bd 883d 2a6d 5fbd f18f 20bc 506e 3dbd
00000160: 6bf1 21bb 0b70 a2bc 28ee 613c 32a5 a93a
00000170: 484e 91bb 6318 a63c 4549 1e3d 1c5f b0bd
00000180: 6756 bfbb 1bd0 953b b37c aebb c823 58bd
00000190: 42db a03a 9f92 8039 363d 89bb 74a8 2abe
000001a0: d763 acbd 7be5 54be 2724 bc3d ffb2 393c
000001b0: af1e e33a 5be6 cbbb f521 1bbb a2be 673b
000001c0: 6750 cf3d 151f 6c3c d7d8 b6bc 1e2c 4a3c
000001d0: 7b66 473c 82b9 96bd 07c3 39bc 9bf9 3c3c
000001e0: f6c5 97b9 d282 7abb 37fc c7bc c54b ef3d
000001f0: 5091 423c 533a ad3c 6af9 fdbb 8ebf 253b
00000200: e7e1 48bc 2385 153b 9de8 dbbd 08e0 683d
00000210: 47d8 f53b 2fc5 04bc 3816 42bc 3f66 c0bd
00000220: e3d9 083e 2bba 4abc 0d9b efbb 4797 a33d
00000230: 0fb3 b3bd 7f9a 07bd 5b26 99bb 2aa5 bd3d
00000240: 9bc9 7c3c 7198 463c cff7 17bc 5722 80ba
00000250: 537e 07bc daf4 233e 987b 813b f77a 02be
00000260: a290 733b e706 c0bc c4c8 a8b9 ad08 743b
00000270: 9ad0 5dbc 2e52 48bb d699 0c3c 0f3d 2f3e
00000280: 53f8 b8b9 e455 a9bb fb57 85bc 8fc1 d33d
00000290: c821 fabb a460 13bc 56ec c83b 5b61 45bd
000002a0: 95ef 66bd 03c8 36be ecc0 c83d 9cf8 9bb9
000002b0: 87a5 a4bb 7108 bbbc d3ba 043c 854a f33a
000002c0: 8a8c 1c3e 7a29 e139 1f81 153d 9dcb 1a3c
000002d0: 9a48 22bc 486c 03be a734 db3b 217a 22bc
000002e0: 1df8 28bc 8657 37bc e248 0bbd 40d6 633d
000002f0: f71f 2abc 95ca ecbd 7db8 9e3c 5ab9 09bc
00000300: f259 a0bb 2b6a 8cba 0819 cd3c 4083 35bc
00000310: 52de 63bd d00b f43b 33c2 e2ba 107b df3d
00000320: f7c7 2dbd 98e2 0b3c c228 763c 1bdb a6bd
00000330: bdb9 a93d 2cd4 b53d 6d46 0e3c 734a ab3d
00000340: 0b3d 003c 32e8 833c eb97 4abd 582c 1b3c
00000350: 28d0 d33c 3eeb 2bbe fae1 36bb 6d70 cd3c
00000360: 3df0 b03c e8a1 3ebc a21d 733c 7ab4 da3b
00000370: 77c0 86ba a951 0d3c c39c 803c 6d4e 99bd
00000380: 47ae e53b fb4f baba 5555 0cbc fa67 0dbe
00000390: f245 b23a b2d4 d03b 3bdb 2b3b ff6b 98bd
000003a0: a064 6d3d bf97 203e a7c7 2abd d340 1f3c
000003b0: 64ea 133a 5d55 ee3c 8c84 1a3c 5da9 b13b
000003c0: 3531 15be ddfb 6f3c 0224 d13c c208 653d
000003d0: 63ac d53b d3e9 1e3d 20d2 163c f87f c23b
000003e0: e8f3 fab8 99d8 17bc 13bf 1a3c 747f 25be
000003f0: d1e1 18bc 4076 913b 7e27 03bd 3527 f0ba
-0.012365375 -0.0005275183 0.029933333 0.03585844 0.00362977 0.021070937 -0.0074748243 0.032098655
0.0040065637 -0.016265657 -0.0027207932 0.014295614 0.06847313 0.036484905 0.0022700683 0.07782626
0.0017767575 0.0037248717 0.050114203 -0.0048045344 0.08176658 -0.111356616 0.008503384 0.036665376
-0.0079916455 -0.0056574186 0.001366461 -0.0035275854 -0.009264072 0.007819819 0.020009993 0.00028444832
-0.030394329 -0.018346092 -0.0063814633 -0.12453949 -0.01707149 -0.016836239 -0.024933679 -0.16023582
-0.049300216 -0.02709061 0.05712203 0.0008157065 -0.010143663 -0.020653512 -0.012782655 -0.012962622
-0.08062127 0.00178105 0.05275632 0.03148713 -0.0031526934 0.037273314 0.008363202 -0.0032192224
-0.023608847 -0.011091603 -0.0086501585 -0.13256131 -0.009340506 -0.027143616 -0.0022083097 -0.017867273
-0.016685974 0.0032180217 0.057048995 -0.0034421494 -0.06699325 0.0168861 -0.00363855 0.04371609
-0.09559011 -0.006901753 0.0013596922 0.07257276 0.07582345 -0.03410949 0.015986426 0.08875492
0.011128223 0.013247478 -0.018068688 0.0110927895 0.06676846 -0.054547466 -0.009799943 -0.04624778
-0.0024710547 -0.019828817 0.013789691 0.0012942909 -0.0044343807 0.0202753 0.038644094 -0.08611891
-0.0058391574 0.0045719272 -0.005324924 -0.0527685 0.0012272375 0.00024523304 -0.004188205 -0.16665822
-0.084174804 -0.20790665 0.09186583 0.01133418 0.001732787 -0.006222529 -0.0023671363 0.0035361429
0.101227574 0.014411707 -0.022320194 0.01233962 0.012170429 -0.073596016 -0.011338002 0.01153412
-0.00028948457 -0.0038224948 -0.024412258 0.11684374 0.0118754655 0.021145975 -0.0077506797 0.0025291177
-0.012260891 0.0022814951 -0.10737727 0.056854278 0.007502589 -0.008103653 -0.011846118 -0.09394502
0.13364367 -0.012373487 -0.0073121847 0.07987838 -0.08774387 -0.033106323 -0.004673762 0.09260018
0.015428926 0.012121306 -0.009275391 -0.0009775859 -0.008269864 0.16011372 0.003951501 -0.1274222
0.0037165065 -0.023440791 -0.0003219304 0.0037236616 -0.013538504 -0.003056656 0.008581599 0.17113136
-0.0003528023 -0.0051677097 -0.016277304 0.10339653 -0.0076334216 -0.008995209 0.006131689 -0.04818855
-0.056380827 -0.17849736 0.09802422 -0.00029749132 -0.005024615 -0.022831174 0.008101183 0.0018561637
0.15287986 0.00042946247 0.036500093 0.009447959 -0.009905005 -0.12834275 0.0066896263 -0.009916813
-0.010313061 -0.011190301 -0.034005053 0.055624247 -0.010383598 -0.11562077 0.01937508 -0.008406008
-0.004893535 -0.0010712793 0.02503635 -0.011078656 -0.055631943 0.007447697 -0.0017300308 0.10912144
-0.04242703 0.008537911 0.015024366 -0.0814726 0.0828738 0.08878359 0.008683783 0.083638094
0.007827054 0.01610193 -0.049461287 0.009471022 0.025856093 -0.16788957 -0.0027905689 0.025078023
0.02159893 -0.011635281 0.014838608 0.0066743465 -0.0010280748 0.008625426 0.01569975 -0.07485662
0.007009301 -0.001421451 -0.008565267 -0.13809195 0.0013601168 0.0063730115 0.00262232 -0.074424736
0.05795729 0.15682887 -0.04169431 0.009720045 0.0005642532 0.029093439 0.009431016 0.005421801
-0.14569552 0.014647451 0.025529865 0.055916555 0.0065207942 0.03879721 0.009205371 0.005935665
-0.0001196636 -0.0092679495 0.00944497 -0.16161901 -0.009331183 0.0044391453 -0.032020085 -0.0018322231

StatefulPartitionedCall/sequential_1/residual_in_residual_block_1/residual_dense_block_1/depthwise_conv2d_2/depthwise_bias f4 [64]
00000000: bbc0 19be 671e 213e 9c29 30be 7f90 363e
00000010: fa75 2bbe d86a ce3d 011f 1c3e 5322 3f3e
00000020: 3759 1bbe e43c 1f3e 4f44 e83d b838 1d3e
00000030: a17d 3bbe 8aca d0bd 410c b6bd af2f 283e
00000040: 2f15 0cbe 3a4e cb3d 6ce1 24be b7c4 e1bd
00000050: 9373 183e 4b62 3b3e fada 26be 7e10 253e
00000060: 40bd e93d cbdf 2abe d026 a03d e38b e83d
00000070: 401e 12be 7392 ff3d 570d 103e bc79 02be
00000080: bb0b 01be 034d 0b3e 5678 2abe 4108 1a3e
00000090: 1e17 073e ff14 e3bd 59a3 08be 7393 003e
000000a0: 6faa 083e b557 adbd 6f2c 2a3e b3ae c0bd
000000b0: c574 12be 586e c93d 6478 083e 4bcd 0a3e
000000c0: 124e 1d3e f392 24be 0316 22be 8c40 ca3d
000000d0: 63b1 9dbd 3654 1b3e 7311 09be ef1b b8bd
000000e0: f04a f83d fe15 113e ddc0 f0bd 7f8f 363e
000000f0: d269 043e 3f10 2fbe 0771 27be 3d0a fa3d
-0.15014927 0.15734254 -0.17203373 0.17828558 -0.16744223 0.100789726 0.15246202 0.18665437
-0.15170752 0.15550572 0.11341154 0.15353668 -0.18309642 -0.10194881 -0.08889056 0.1642444
-0.13679956 0.0992703 -0.16101617 -0.110238485 0.14887838 0.18299215 -0.1629447 0.16119573
0.1141305 -0.16686933 0.07819903 0.11354806 -0.14269352 0.12479105 0.14067589 -0.1274175
-0.12602131 0.13603596 -0.16647467 0.15042211 0.13192412 -0.11087989 -0.13343562 0.12556247
0.13346265 -0.084639944 0.16618513 -0.09408321 -0.14302357 0.098354995 0.13327175 0.13554876
0.15361813 -0.16071682 -0.1582871 0.098755926 -0.076998495 0.15168843 -0.13385563 -0.08989703
0.12123668 0.14168546 -0.11755536 0.17828177 0.12930992 -0.17096041 -0.1635171 0.12208984

StatefulPartitionedCall/sequential_1/residual_in_residual_block_1/residual_dense_block_1/depthwise_conv2d_3/depthwise/ReadVariableOp f4 [1, 3, 3, 64]
00000000: 17e8 d53c e55b 18be e2f6 35bd 4b36 a4be
00000010: d811 c73c 9210 e83d 96bb 263e 1dbe 0dbf
00000020: aa71 babe 6cbb 283e 6d0e 2ebd 2c67 60bf
00000030: 07c6 0c3c 8c8c e5be 8cbb 653d ed4e 1fbf
00000040: edef a53c 9b20 7d3d 0a0f cc3c 944f a33c
00000050: 327e 36bf 8f7a 50bf 31f0 74bd 39f0 e4be
00000060: c967 a83d aa11 91bd dd5c b83c 075b 663d
00000070: f037 1c3d 619a cabd 093c 11be b24b b5be
00000080: 3643 413e d5f9 40be 4f08 4f3e 261e 74bf
00000090: c6fd 27bc 20df 4fbd 687e d8bd b8f3 40bf
000000a0: 39fb f8be 8c66 dfbe 77c0 58bf bede c03c
000000b0: 482f f4bc 2623 60be 936a 8c3d 3f1f 0c3d
000000c0: e030 47bf b581 ae3e 8c29 523e cb98 c0bd
000000d0: 642e c9bc d890 3bbf 6c7b d43d 3196 363c
000000e0: dc8d 4c3c 82bf a9bd 240a 16be b24d 3fbf
000000f0: 2e15 16be 03fc 44be 6507 31bc 776f 253d
00000100: 082d 053e 74b4 9fbd 16ad 7b3e 7ad2 94be
00000110: aaba 3cbe 7248 343e 8a97 863e 4a86 47be
00000120: 1e54 093f 1f1f 453e d0b0 173c f07d 49bf
00000130: 1942 0e3f d1ca ac3d fad4 d63d 2813 16bf
00000140: f912 233d dbbf 9c3d b21d 22be e3b5 333d
00000150: 5c7d 41bf d5de b43e 3142 aebc 33f2 e1bd
00000160: 1bb2 cc3d b4bf 2dbc 0a9a 833d 789f 473d
00000170: ef97 833d 6a35 513d 3144 833d 57d8 b83d
00000180: 008d 683e c7a0 263d 0404 623e e64d 29bf
00000190: a548 833d 4b26 07bc cf36 2d3d c12f 57bf
000001a0: 541e edbe db21 12bf b361 3abf d434 5b3d
000001b0: cbe1 d13c 0edf f6bd 8424 a23d ccd5 753d
000001c0: 455a f13e 850b c53e 048c 9abd 9821 093e
000001d0: 9ad8 5d3d 09e6 52be a2fb f3bc e721 823d
000001e0: cd58 be3d 87b4 a83d d2f4 60bd 67e9 0f3f
000001f0: a722 5f3e 070d e43e 958d f53c 218b 0a3e
00000200: ee2a a33e ce7d debd 875d e6be 083e f7bd
00000210: 8bd9 af3e 9ed4 f73d 03d7 833c 822a 1cbf
00000220: ac98 21bf 1c4e 9a3d 6715 16be f1b3 55bf
00000230: 0441 a9be 43c1 92bd ef4f 373d 6673 24bf
00000240: 40c6 61bb 835e c4b8 3cd8 4abe 9ee5 58bd
00000250: 8d51 6fbf 8239 edbe ba15 ab3c f95d 8bbe
00000260: 70e3 393d b12d 9abc 94ba 16bd 9440 69bc
00000270: e0ce 583d b55e b4bd d5f9 d4bc 3aab f03e
00000280: 4277 6b3e 4314 f6bd 04c3 533e 1871 83bf
00000290: d63c 453d 645e 24bd 1f96 533e ae9f 1abf
000002a0: 0cb0 e8be 0412 84bf 631e 72bf b8ec 9cbc
000002b0: fc6e d2bc e4b0 4cbe bef2 2c3d 4ffc 0e3d
000002c0: 467e 71be ccbc d43e 2220 03be e7f6 67be
000002d0: 6f39 8abc 6209 74be ce24 b43d 1acf a7bc
000002e0: a5bf b23d ca14 96bd d2f1 be3e fd5b 15bf
000002f0: ecd4 16be f896 3dbe 144f 5d3c 7add 063e
00000300: beb7 c8bd b5a8 d2bc 5d9b 61bb e270 e3bd
00000310: cc8c 93be 251a 8c3d 3e78 7c3e c1fb ef3d
00000320: 31be 85be 2571 24bc f86e 433d 91be 41bf
00000330: 0f0c 59be 3dbe dfbe 4553 743d 10ac 193f
00000340: fcb7 a63d 7734 e53d 9f2b ddbe 99c7 b13d
00000350: c611 86be dbd8 73bf 607d 0ebd 39cc 04bf
00000360: 6090 043e afe4 18bd d04b aa3d 4de6 e03d
00000370: c837 2f3c f8dc b93c 1f7f 34be 3160 0fbe
00000380: 3e76 493e 9371 d5bd beeb 113c 650d 42bf
00000390: 27bd e23c 29ca 2b3d 1875 50bd 88d3 39bd
000003a0: 0350 3e3e d100 443d a614 39be cf32 613d
000003b0: 557b a33c 7e46 a03c 3eeb ef3d 37e2 4a3d
000003c0: b729 55bf 71f8 cb3d f108 353e 6115 76bc
000003d0: 7585 c63c 135f 58bf 6887 143d eaa2 233d
000003e0: 910b 3e3d 9fa1 863c 5030 043e 28e8 53bf
000003f0: 5be4 1abe 08aa 9d3e 12e8 cebd 1bfd ad3d
0.026111646 -0.14878805 -0.0444249 -0.32072672 0.0243005 0.113312855 0.16282496 -0.55368215
-0.36414844 0.16477746 -0.042494226 -0.8765743 0.008592135 -0.4483379 0.05608706 -0.62229806
0.020256007 0.061798673 0.024909515 0.019935407 -0.7128631 -0.8143701 -0.059799377 -0.44714525
0.082229204 -0.07083447 0.022505218 0.056239154 0.038139284 -0.09892727 -0.14183058 -0.35409313
0.18873295 -0.18845303 0.20218013 -0.953585 -0.010253375 -0.050749898 -0.10570985 -0.75371885
-0.48629168 -0.43632925 -0.8466868 0.023543712 -0.029807702 -0.21888408 0.06856265 0.034209486
-0.7780895 0.34083334 0.20523661 -0.09404143 -0.024558254 -0.7326789 0.10375103 0.011144207
0.012484994 -0.0828848 -0.14652306 -0.7472793 -0.14656517 -0.1923676 -0.010804986 0.040389504
0.1300546 -0.077980906 0.24577746 -0.2906683 -0.18430582 0.1760576 0.2628749 -0.19484821
0.5364398 0.19250153 0.009258464 -0.7870779 0.55569607 0.08437122 0.10489841 -0.5862298
0.039813016 0.07653781 -0.1583164 0.043874633 -0.7558191 0.35326257 -0.021271797 -0.11032524
0.099949084 -0.010604788 0.06425865 0.048736066 0.064254634 0.05107633 0.06409491 0.090256386
0.22710037 0.040680673 0.22071844 -0.6613449 0.0641034 -0.008248876 0.042288598 -0.8405724
-0.463122 -0.5708291 -0.7280533 0.053517178 0.025620362 -0.12054263 0.07917121 0.060018346
0.47139183 0.3848535 -0.07546237 0.13391721 0.054161645 -0.20595564 -0.029783074 0.063541226
0.09294281 0.08237558 -0.05492098 0.5621552 0.21790563 0.4454119 0.029974738 0.13529636
0.3186869 -0.10863839 -0.4499323 -0.120723784 0.3434566 0.121011004 0.016093737 -0.6100236
-0.63123584 0.075344294 -0.14656602 -0.83477694 -0.33057415 -0.07165768 0.044753965 -0.64238584
-0.0034450442 -9.3636125e-05 -0.1980905 -0.052953355 -0.9348381 -0.46332937 0.020884383 -0.27220133
0.045382917 -0.018820615 -0.03679903 -0.014236588 0.052931666 -0.088071264 -0.025998035 0.47005635
0.22994712 -0.12015583 0.20679861 -1.0268888 0.04815372 -0.04012908 0.20662735 -0.603999
-0.45446813 -1.0317998 -0.94577616 -0.019155845 -0.025687687 -0.19989353 0.042223684 0.03490859
-0.23583326 0.4155029 -0.12805226 -0.2265278 -0.01687309 -0.23831704 0.087960824 -0.020484496
0.087279595 -0.07328184 0.3729387 -0.5834349 -0.14729661 -0.18514621 0.013507623 0.13170424
-0.09800671 -0.025715211 -0.003442488 -0.11105515 -0.28818357 0.06840924 0.24655244 0.1171794
-0.26121667 -0.010036741 0.04771325 -0.75681406 -0.21196006 -0.43699828 0.059649725 0.6002817
0.08140561 0.111916475 -0.43197343 0.08680648 -0.26185435 -0.9525277 -0.034787536 -0.5187412
0.129457 -0.037327465 0.08315241 0.109814264 0.010694452 0.022688374 -0.17626618 -0.14001538
0.19674012 -0.10422053 0.008906303 -0.7580169 0.027678085 0.04194084 -0.05089292 -0.045367748
0.1858521 0.04785234 -0.18074283 0.054980095 0.01995627 0.019564863 0.11714791 0.04953214
-0.83266777 0.09959496 0.17679192 -0.015019746 0.02423356 -0.8452007 0.036261946 0.03995029
0.04639775 0.016434489 0.12909055 -0.8277612 -0.15126173 0.30793786 -0.10102858 0.08495542

StatefulPartitionedCall/sequential_1/residual_in_residual_block_1/residual_dense_block_1/depthwise_conv2d_3/depthwise_bias f4 [64]
00000000: b095 a3be 02a7 343f 521f 903e e1f1 6e3f
00000010: 81d9 743e d6df cf3e 16f5 433f d6ec c93e
00000020: 822a d73e 59dc 053f f86b 013f 8dd8 a53f
00000030: e60b 773d ec6f 7bbd 11a0 d7be 2a47 903f
00000040: dc8c 3dbf 537b a13e 4b16 8abd 94e0 1ebf
00000050: b124 793f 2122 a23f bf94 59bf 8aca 203e
00000060: cd60 f73e d80b 5dba 68d3 a33e f04a f83e
00000070: c7c4 24bf 5b98 1b3f b42b 5f3f 72ce 5e3e
00000080: 4db4 bbbe 4b53 4b3f 2626 34bf f93a 803f
00000090: 5eec 103f 504a 0abf 3ac0 01bf ffda 843f
000000a0: 097f 7b3f ed92 283f b16c 9c3f 0db6 fabe
000000b0: f874 40bf 8848 1a3f ab73 073f 2deb 1a3f
000000c0: 0d89 9f3f 4d4e 21bf 4fc7 42bf d138 2f3f
000000d0: 50df c1be 15e5 0c3f 31a6 1bbf 18c4 f3be
000000e0: 162e b43e 0789 ad3e 627c 22bf 2569 9e3f
000000f0: 8130 123f 44ac 7b3e 075e 52bf 3e4e b53e
-0.3195014 0.70567334 0.28148896 0.9333783 0.23911096 0.4060046 0.76545846 0.39438504
0.42024618 0.5228935 0.5055537 1.2956711 0.06031408 -0.061386034 -0.42114308 1.1271718
-0.7404306 0.315394 -0.06742533 -0.6206143 0.9732161 1.2666665 -0.84992594 0.15702263
0.4831604 -0.0008432246 0.31997228 0.48494673 -0.6436276 0.6077935 0.8717606 0.2175844
-0.36660996 0.7942397 -0.7037071 1.0017997 0.5661067 -0.5401964 -0.5068394 1.0379332
0.98240715 0.6584919 1.222067 -0.4896702 -0.7517848 0.60266924 0.5291087 0.605151
1.24637 -0.630101 -0.7608537 0.6844607 -0.37865686 0.5503705 -0.6080046 -0.47610545
0.3519141 0.33893606 -0.63471043 1.2375838 0.5710526 0.24577433 -0.82174724 0.35411257

StatefulPartitionedCall/sequential_1/residual_in_residual_block_2/residual_dense_block_2/depthwise_conv2d_4/depthwise/ReadVariableOp f4 [1, 3, 3, 64]
00000000: 088e 4cbc 67aa 59b9 9093 093d fff7 1b3d
00000010: 380d 803b cbec ab3c 27c8 fbbb ab1f 213d
00000020: fc22 443c 97ae 89bc ab94 6ebb 7d3b eb3c
00000030: 9b9f 973d 4022 3c3d dac2 c63a 72b9 d23d
00000040: 0b04 993a a830 613b 22cf 4a3d e9af a5bb
00000050: 1bd0 b63d dc97 b1bd da35 223c ef9d 273d
00000060: c300 0abc 3784 b3bb 37dd 9e3a 50d7 5ebb
00000070: bba3 1abc f74d fb3b c467 a23c c9f7 0c3c
00000080: a006 06bd 8c7c 8cbc 0ff2 eabb 6fe1 e7bd
00000090: 8f29 8ebc 95ab 8cbc 69e2 cbbc 6361 20be
000000a0: 6390 3ebd 4f60 62bc 0e00 823d e389 1c3a
000000b0: 3256 22bc 2137 a1bc 9296 5abc 22f4 5dbc
000000c0: bf95 67bd b398 f7ba 37bf 5a3d f6d8 023d
000000d0: 373a 50bb e467 393d 0c46 063c 1a17 67bb
000000e0: 5d46 c3bc f50e 33bc d71d 12bc 4767 f7bd
000000f0: 0735 18bc a5e2 edbc c553 b4ba 78c3 95bc
00000100: 5012 88bc 4f85 5a3b 6a90 703d e78c 33bb
00000110: c4ac 89bd bb97 853c 1940 81bb 9b2b 433d
00000120: 172c b6bd 3f14 00bc cc79 c03a 1e79 ad3d
00000130: a471 943d df66 2cbd 7826 7f3c e727 e53d
00000140: 2d21 353c 1db8 5b3c 4c2c 9dbc 9787 363c
00000150: 4e39 993d 3fcb afbd cbe2 1dbc 8e2c 36bd
00000160: fbd6 23bb 5b65 a1bc 0b59 633c 0b7c b63a
00000170: e0be 92bb bf9d a83c 4e2d 1d3d 585f 94bd
00000180: 1f06 01bc eacc 923b a825 cebb e97f 3dbd
00000190: 0439 9b3a 91c5 1b38 e7b5 9cbb 0ef0 28be
000001a0: fb71 a5bd e208 52be 94b1 c93d 4fee 383c
000001b0: d5b7 d83a efc9 b1bb ab6d 11bb c053 513b
000001c0: f832 a83d 570b 3a3c 8c7d abbc c315 4a3c
000001d0: 1bbb 413c 2e57 87bd 7b94 3fbc 9e41 3b3c
000001e0: 203e 27ba 25d2 7cbb d9e5 c6bc c61f 063e
000001f0: 9ffd 4b3c cebb ac3c f35c 06bc 970d 113b
00000200: d816 55bc daf7 1e3b 936b debd e5d2 6b3d
00000210: f3ed fd3b 74cf 0cbc 9a4f 3ebc 4341 bfbd
00000220: 588b 0b3e dff8 57bc cf44 eabb bdc7 ba3d
00000230: 2aa0 c1bd 2581 d0bc 110a 99bb 2df8 e23d
00000240: b401 803c 4645 4b3c 9818 2abc e330 44ba
00000250: 6e42 a63b d619 2b3e 6d7c 793b 83b2 03be
00000260: 0d2d 843b 481a c0bc aa52 dbb8 3872 773b
00000270: 43ec 62bc 4861 37bb 8b20 023c 9f7d 353e
00000280: 8d1e ebba efa8 b1bb eb1f 8abc 05a6 ec3d
00000290: 4efe 03bc 0e94 12bc ca28 d03b cc9d 25bd
000002a0: 9823 5abd dda1 29be c88c d43d 7099 cdb9
000002b0: 4fe3 b2bb cbeb b2bc 4d54 033c c10f bc3a
000002c0: cb70 263e 63f7 0dbb 1754 1a3d 7f15 4d3c
000002d0: f840 24bc 4f87 03be aad9 c53b 5053 24bc
000002e0: 4ff0 2fbc 56f9 3cbc e352 0bbd 237b 903d
000002f0: 7490 31bc ea1a eebd 0b92 a23c 7af0 09bc
00000300: c11f b0bb 6247 87ba d88c 053d 0e25 36bc
00000310: f009 65bd f3e7 f33b 8cdd 03bb ef57 e83d
00000320: ca51 07bd 0b18 1a3c c719 6a3c db84 8fbd
00000330: 5442 c83d bf5c ce3d 4858 0b3c ba80 a23d
00000340: aa46 e83b 92a4 833c 372b 4dbd 254e 173c
00000350: 2008 cf3c df72 16be 0fc5 03bb 134c fd3c
00000360: 3a4e ac3c d7cc 46bc cfc0 6d3c c890 d33b
00000370: 1bca 8dba 3fa0 0c3c 2d09 7a3c d5e4 69bd
00000380: abe8 c03b 1087 d2b9 db4c 12bc ff89 03be
00000390: b24a b53a 74f0 c93b 8ee1 123b 1379 97bd
000003a0: 9558 503d 6388 1b3e 33c6 28bd 5521 1f3c
000003b0: af9d 6b39 d3ab e23c 778f 143c 560f ac3b
000003c0: 9d22 febd 8773 593c 330c cd3c c03b 673d
000003d0: 2bea d73b 5a9d 3f3d b3d8 143c 5413 cc3b
000003e0: a7d1 ffb8 d1ad 14bc 52a9 213c d689 17be
000003f0: 008d 15bc 5095 6dba 372f 00bd d024 ffba
-0.012485035 -0.00020758212 0.033587992 0.038078304 0.003907826 0.020986935 -0.007683772 0.03933684
0.011971232 -0.016806884 -0.003640453 0.02871489 0.07403489 0.0459311 0.0015164271 0.10289277
0.0011674179 0.0034361277 0.049513943 -0.0050563705 0.08926412 -0.08671543 0.0099005345 0.0409221
-0.008423033 -0.0054784077 0.001212037 -0.0034002848 -0.00943845 0.0076692062 0.01982487 0.008603998
-0.03272116 -0.017149232 -0.007169969 -0.11322295 -0.017353801 -0.01717166 -0.024888234 -0.1566215
-0.046524417 -0.013816907 0.06347667 0.00059714745 -0.009908246 -0.019679608 -0.013341563 -0.013546975
-0.056539293 -0.0018890112 0.053405013 0.03194519 -0.003177298 0.045265093 0.008195411 -0.0035261572
-0.023837263 -0.010928859 -0.008918247 -0.120802455 -0.009289986 -0.029038737 -0.0013757875 -0.018281683
-0.016610295 0.0033343618 0.058731474 -0.0027397217 -0.067224056 0.016307702 -0.0039444086 0.047649007
-0.08895128 -0.007817327 0.0014684736 0.08470367 0.07248238 -0.042090293 0.0155731365 0.111892514
0.011055273 0.013410595 -0.019186161 0.011140726 0.07481633 -0.08583688 -0.009636591 -0.044476084
-0.0024999965 -0.01970165 0.01387621 0.0013922466 -0.0044783205 0.020583032 0.038373284 -0.07244748
-0.007874995 0.004479994 -0.00629111 -0.046264563 0.0011842554 3.7138878e-05 -0.0047824266 -0.16497824
-0.08078381 -0.20511201 0.098483235 0.011287286 0.0016534278 -0.0054256837 -0.0022190611 0.0031940788
0.082128465 0.011355243 -0.020933889 0.01233429 0.011824395 -0.06608425 -0.011693115 0.011429219
-0.0006379802 -0.0038577404 -0.024279522 0.13098058 0.012450605 0.021085646 -0.008200872 0.0022133344
-0.013005935 0.0024256618 -0.10860362 0.05757417 0.007749313 -0.008594383 -0.011615658 -0.093386196
0.13627374 -0.013181894 -0.007149316 0.09120128 -0.09454377 -0.025452206 -0.0046703895 0.11082492
0.015625812 0.012406653 -0.01038184 -0.00074840913 0.005073837 0.16709074 0.0038068548 -0.12861066
0.004033691 -0.023450032 -0.00010458131 0.0037757289 -0.0138502745 -0.0027981568 0.007942329 0.17723702
-0.0017938182 -0.00542175 -0.016860923 0.11555103 -0.008056236 -0.008946432 0.0063525187 -0.04043369
-0.0532566 -0.16565652 0.103784144 -0.00039214967 -0.005459226 -0.02184095 0.008015704 0.0014347957
0.16253965 -0.0021662347 0.03767785 0.012517332 -0.010025255 -0.12844585 0.0060379105 -0.010029629
-0.010738446 -0.011534056 -0.034014594 0.070547365 -0.010837663 -0.11626227 0.01984503 -0.0084191505
-0.005374879 -0.0010320956 0.032605022 -0.011117233 -0.05591768 0.007443422 -0.0020121066 0.11344897
-0.033036985 0.009405146 0.014288372 -0.07007762 0.09778276 0.10076284 0.008504935 0.07934709
0.007088502 0.016069684 -0.05009004 0.00923494 0.025272429 -0.14692257 -0.002010647 0.030920064
0.021033395 -0.012133799 0.014511301 0.0064564683 -0.0010817678 0.0085831275 0.015260977 -0.057102997
0.005887111 -0.0004015495 -0.008929457 -0.1284561 0.0013831465 0.0061626974 0.0022412273 -0.0739614
0.05086573 0.15188746 -0.041204643 0.009712537 0.00022470088 0.027669823 0.009067408 0.0052508516
-0.12408946 0.013272173 0.025030231 0.056453466 0.0065891943 0.04678092 0.009084868 0.00622789
-0.00012198398 -0.009074644 0.009867029 -0.14798674 -0.009127855 -0.0009063082 -0.031295028 -0.0019465927
